Experiment 2: Deep Feed Forward ANN (>=4 Hidden Layers) on MNIST
Model: "sequential"
+--------------------------------------------------------------------------+
| Layer (type)                    | Output Shape           |       Param # |
|---------------------------------+------------------------+---------------|
| flatten (Flatten)               | (None, 784)            |             0 |
|---------------------------------+------------------------+---------------|
| dense (Dense)                   | (None, 128)            |       100,480 |
|---------------------------------+------------------------+---------------|
| dense_1 (Dense)                 | (None, 128)            |        16,512 |
|---------------------------------+------------------------+---------------|
| dense_2 (Dense)                 | (None, 64)             |         8,256 |
|---------------------------------+------------------------+---------------|
| dense_3 (Dense)                 | (None, 64)             |         4,160 |
|---------------------------------+------------------------+---------------|
| dense_4 (Dense)                 | (None, 32)             |         2,080 |
|---------------------------------+------------------------+---------------|
| dense_5 (Dense)                 | (None, 10)             |           330 |
+--------------------------------------------------------------------------+
 Total params: 131,818 (514.91 KB)
 Trainable params: 131,818 (514.91 KB)
 Non-trainable params: 0 (0.00 B)

Starting training...
Epoch 1/10

[1m   1/1875[0m [37m====================[0m [1m23:21[0m 748ms/step - accuracy: 0.0000e+00 - loss: 2.3489
[1m  30/1875[0m [37m====================[0m [1m3s[0m 2ms/step - accuracy: 0.2344 - loss: 2.1895         
…
