Could not find platform independent libraries <prefix>
Experiment 7: LeNet-5 Implementation (Fashion MNIST)
Model: "sequential"
+--------------------------------------------------------------------------+
| Layer (type)                    | Output Shape           |       Param # |
|---------------------------------+------------------------+---------------|
| conv2d (Conv2D)                 | (None, 28, 28, 6)      |           156 |
|---------------------------------+------------------------+---------------|
| average_pooling2d               | (None, 14, 14, 6)      |             0 |
| (AveragePooling2D)              |                        |               |
|---------------------------------+------------------------+---------------|
| conv2d_1 (Conv2D)               | (None, 10, 10, 16)     |         2,416 |
|---------------------------------+------------------------+---------------|
| average_pooling2d_1             | (None, 5, 5, 16)       |             0 |
| (AveragePooling2D)              |                        |               |
|---------------------------------+------------------------+---------------|
| conv2d_2 (Conv2D)               | (None, 1, 1, 120)      |        48,120 |
|---------------------------------+------------------------+---------------|
| flatten (Flatten)               | (None, 120)            |             0 |
|---------------------------------+------------------------+---------------|
| dense (Dense)                   | (None, 84)             |        10,164 |
|---------------------------------+------------------------+---------------|
| dense_1 (Dense)                 | (None, 10)             |           850 |
+--------------------------------------------------------------------------+
 Total params: 61,706 (241.04 KB)
 Trainable params: 61,706 (241.04 KB)
 Non-trainable params: 0 (0.00 B)
Training LeNet-5...
Epoch 1/10

[1m  1/938[0m [37m====================[0m [1m1:27:55[0m 6s/step - accuracy: 0.0938 - loss: 2.3365
[1m  5/938[0m [37m====================[0m [1m13s[0m 14ms/step - accuracy: 0.1364 - loss: 2.2714  
…
